v1.pth (torch, 661206 bytes, 6 tensors)

weight f4 [256, 512]
000000 05 db 41 bc af 40 13 bd 8f ad 3e 3d 17 01 6f 3b
       -0.0118320035 -0.03595036 0.046552237 0.0036469155
000010 5a b0 32 bd 81 c3 f5 bb c2 92 d1 ba 8d 54 ef 3c
       -0.043625213 -0.0075001125 -0.0015989172 0.029215122
000020 62 5e bd bc f3 10 11 3d ab 66 d3 3c a1 77 56 bc
       -0.023116294 0.035416555 0.025805792 -0.013090045
000030 a6 6f d2 bc 58 b5 72 3c e1 c4 6e 3c e7 36 04 bd
       -0.025688004 0.0148137435 0.014573307 -0.03227892
000040 d7 17 05 3c 51 a5 81 3c 26 b5 ae 3b 65 bc de bc
       0.00812336 0.0158259 0.005331653 -0.027189443
000050 89 63 4e bd c9 c1 04 bd 2b da f2 3b d3 a5 3f bd
       -0.050387893 -0.03241137 0.0074112616 -0.046789
000060 7f a7 78 bc 3d fb 44 3c 36 3d 11 3c 36 07 c4 bc
       -0.015176653 0.0120227905 0.0088646915 -0.02392922
000070 8f 68 38 bd 57 09 cc bc ef 9e eb 3c ab cb 16 3c
       -0.04502159 -0.024906797 0.028762309 0.009203832
000080 d0 8b de 3c 76 dc e7 3b 75 1a 4f 3a 3e a1 1e 3d
       0.027166277 0.0070758415 0.0007900366 0.03872799
000090 94 a9 8a 3c d0 27 94 3c 7d 67 1b 39 32 2b 13 3c
       0.016926564 0.01808539 0.00014820504 0.0089824665
0000a0 de 47 be bc b8 3e a0 bc 57 2d 97 bc 8e f3 d7 3c
       -0.023227628 -0.019561157 -0.018454237 0.026361253
0000b0 a0 05 d1 bc 57 4c a2 bc 80 5b 0c bd aa 6c 11 bb
       -0.025515378 -0.019811792 -0.03426695 -0.0022190013
0000c0 d4 96 c0 bc df 76 dd bc 63 a7 e0 3b 45 44 18 3d
       -0.02350942 -0.027034221 0.0068558916 0.037174482
0000d0 67 f8 70 3d 52 af 93 3c ca 09 e8 3c 10 f8 12 3d
       0.058830645 0.018027935 0.02832498 0.035881102
0000e0 00 79 22 bd 82 28 a4 bc 32 91 44 bc c0 bc 9c bc
       -0.039666176 -0.020038847 -0.011997508 -0.019132972
0000f0 77 26 d9 bc 9a 56 f6 bb 29 7f 3e 3d ba 55 8e bc
       -0.0265076 -0.007517648 0.046507988 -0.017374862
000100 b9 7f e8 3c f8 d2 16 bd d6 f4 b0 bc ac b7 2d 3d
       0.028381215 -0.03682229 -0.021601122 0.04241149
000110 4e 7c 84 3c cd 6d 4e bc c0 92 29 bd f0 08 82 ba
       0.016172554 -0.012599421 -0.041399717 -0.0009920876
000120 25 77 f6 bc a1 91 1e 3d ea 17 09 bd ec 80 a5 bc
       -0.03008611 0.0387131 -0.03347007 -0.020203076
000130 43 79 11 bd e7 35 34 3c 60 08 0c bd 7b 26 40 3d
       -0.035516035 0.010999179 -0.034187675 0.046911698
000140 90 41 af 3c 32 cd ca 3c 35 6c 30 3d 4f 4b a9 3c
       0.021393567 0.024756048 0.043071944 0.020665793
000150 5f 49 32 3b 5d 4b f9 bc 6b a6 ca bc c1 29 28 3d
       0.0027204377 -0.030431444 -0.024737557 0.041055445
000160 0d 80 86 3b 4b 4a ba 3c 77 93 c8 bc 4b 49 02 bd
       0.0041046203 0.022740504 -0.02448438 -0.03180818
000170 bb 59 d8 3c ac af 91 3c e6 db e6 3c 64 45 9c ba
       0.026409974 0.017783962 0.028181028 -0.0011922535
000180 df cc 21 bd ec c4 c3 bc f7 d0 11 bd 8f ef 68 3c
       -0.03950202 -0.02389761 -0.035599675 0.0142172715
000190 4b 68 4a bb 63 17 8d 3a 63 1c c5 3c 29 89 d6 3c
       -0.0030884917 0.0010764416 0.024061387 0.02618845
0001a0 62 6b fd bc 8a 01 be bc 87 10 25 bd d0 33 39 bd
       -0.030934993 -0.023194093 -0.040298965 -0.045215428
0001b0 2c 62 3d bd dd fa 96 3c 94 44 0f bc eb 09 19 bd
       -0.046236202 0.018430168 -0.008744378 -0.037362974
0001c0 11 cc 6b 3c 1f ad 29 3c 15 80 4b bc 36 a9 0d bd
       0.014391915 0.010356217 -0.012420674 -0.0345852
0001d0 f4 4b 3d bc cd 85 ca bc 32 47 20 bd 08 b8 e4 3b
       -0.011553753 -0.024722004 -0.039130397 0.006979946
0001e0 17 ce 3d bc 17 da bd 3c 18 50 10 3d b0 f4 a8 3c
       -0.01158478 0.023175282 0.035232633 0.020624489
0001f0 68 ff 86 3c 91 16 3e 3d 96 e0 9e 3c 19 35 54 bc
       0.016479209 0.04640824 0.0193942 -0.012952113
000200 8e 25 db bc bb cd 32 3d b1 4a 7a 3c 56 85 98 bc
       -0.026751306 0.04365323 0.015276597 -0.018618267
000210 90 94 4e bc 7f 1e ed bb d4 2d 01 3d 55 a6 ce 3c
       -0.012608662 -0.0072363014 0.031537846 0.025225798
000220 14 86 3c 3d ce af 11 3d c7 bd 74 bc 91 06 11 bd
       0.046026304 0.03556805 -0.014937825 -0.035406653
000230 9a 47 4b 3c dc c2 09 bd 98 16 b3 bb f8 52 fa bb
       0.012407208 -0.033633098 -0.00546534 -0.007639285
000240 49 e8 cb 3c d1 78 f0 3c 7f 4a 0c 3d e8 79 08 bc
       0.024891036 0.029354485 0.034250733 -0.008329846
000250 90 15 88 3c fb 91 15 bd e1 48 22 3b 47 1b a2 3c
       0.016611844 -0.03651617 0.0024762677 0.019788397
000260 0c 61 f2 bc 63 64 62 bc 9c cc 44 3d 7f 61 58 bd
       -0.029587291 -0.013817879 0.048046693 -0.052827355
000270 ed 7f fb bc 83 6e 97 3b 68 73 98 b9 4f 1e 83 3c
       -0.030700648 0.0046213283 -0.00029077684 0.016005663
000280 b2 28 00 3d d6 2c 57 bc 6d d8 8e 3c e8 8c 91 bc
       0.03128881 -0.013133248 0.017437184 -0.017767385
000290 37 d5 6a 3d ba ca 32 3d 1d 4c 1a bd 85 12 ad bc
       0.057332244 0.043650366 -0.037670244 -0.021126995
0002a0 ce 5f 1d bc 4a 08 9b bb 9c e4 73 bd 08 16 ca 3b
       -0.009605361 -0.0047312127 -0.05954419 0.006167177
0002b0 89 fc f7 3c b5 80 7b bc 34 e6 35 3c 77 33 8e 3c
       0.030271785 -0.01535051 0.011102248 0.017358525
0002c0 a6 67 04 3d 8e 83 dd 3c 71 ff 33 3c c5 c3 13 bd
       0.03232541 0.02704027 0.010986195 -0.036075372
0002d0 12 39 13 bd 61 99 f9 3c 09 66 84 bc d2 d2 85 3b
       -0.0359431 0.030468645 -0.016161935 0.0040839696
0002e0 6b bd 0a 3d 61 d6 03 bd 43 52 70 bd b0 7a 19 bd
       0.03387205 -0.03218687 -0.0586722 -0.03747052
0002f0 10 19 4d 3d 2a a6 0f bd ec bd ee 3c 8b 43 2e 3d
       0.05007273 -0.035070576 0.029143296 0.042544883
000300 cf 04 69 3c 56 86 16 bd dc 34 1c 3d 98 71 a0 3c
       0.014222338 -0.036749206 0.038136348 0.019585416
000310 bf 36 1f bd 09 a8 47 3c ca a4 50 3c 7a 66 49 ba
       -0.03887057 0.012186059 0.012734601 -0.00076828117
000320 c9 a3 2e 3d 14 32 01 bd 4f cf 63 3b 7c 4b 98 3b
       0.042636666 -0.0315419 0.0034761017 0.0046476703
000330 90 b9 ea 3a 28 c7 11 3d de de 1c bd 43 39 1d 3c
       0.0017908085 0.03559032 -0.03829848 0.009596172
000340 8c 22 01 bc bb 4e 27 bd a8 91 04 3c 46 6e 09 bd
       -0.007881772 -0.040846568 0.008091368 -0.03355243
000350 c2 26 1b bc 24 cd 21 3c 06 ae 04 bd 5c f5 94 bc
       -0.00946969 0.0098755695 -0.032392524 -0.018183403
000360 4b 7c 72 bc 48 cc 4c bc 6d 90 25 3d 30 6e 77 ba
       -0.014800142 -0.012499876 0.04042094 -0.00094387215
000370 2c 0e 3a 3d e0 5a ac bc 0c 5e 22 3c 68 78 a0 bb
       0.04542367 -0.021039426 0.009910118 -0.004897166
000380 a5 32 c9 b8 42 45 43 3c 7c b3 9e bc b1 00 80 bc
       -9.59386e-05 0.011918368 -0.019372694 -0.01562533
000390 f7 ee 2c bb 3f 9e 10 bc d7 ed 38 bd 1a ac dc 3c
       -0.0026387551 -0.008826791 -0.045148697 0.026937533
0003a0 30 ed 07 3c 3e 89 24 3d b9 ba bd 3c e2 17 cc 3b
       0.008296296 0.040169947 0.023160325 0.006228433
0003b0 40 54 20 3d 51 f0 a4 bc 25 7b 55 bd af e3 e5 bc
       0.039142847 -0.020134123 -0.052119393 -0.02806267
0003c0 a9 de 55 3c 9e 8e b2 b7 eb 7a 2b bc 8f 55 d2 3c
       0.013053575 -2.1285665e-05 -0.010466318 0.025675563
0003d0 1e 4a 0f bd 50 90 90 bc b3 b9 46 bb 21 01 39 bd
       -0.034982793 -0.017646939 -0.0030323088 -0.045167092
0003e0 3e 82 40 bd 51 d1 4e 3d f1 7e c0 bb a8 e4 0e 3d
       -0.04699921 0.05049259 -0.0058745076 0.034886032
0003f0 ea 41 69 3d e9 16 b5 bc 1e 96 aa ba 71 a6 55 bc
       0.056947626 -0.022105651 -0.0013014709 -0.013040171

bias f4 [256]
000000 0c a4 2e 3d b6 3b cb 3c 6e 3f 2d 3d 35 cc 1d bd
       0.042636916 0.024808746 0.04229682 -0.038524825
000010 bb 0b 00 bd c8 22 83 3c bc 39 28 3d 32 6e 0f 3b
       -0.031261187 0.016007796 0.041070685 0.002188575
000020 d4 70 8f bc c5 c5 fa 3c b4 11 35 3c dc 5a 9e 3c
       -0.017509855 0.030611882 0.011051584 0.019330435
000030 fa d9 ac bc 5c 30 27 3d 1d 51 ca bc 79 7a ba 3c
       -0.021100033 0.040817603 -0.024696881 0.022763478
000040 c7 a1 1e bd 61 93 3f bc 6f eb 09 3d 70 19 48 bb
       -0.0387285 -0.011692853 0.033671793 -0.003053274
000050 a6 d8 26 bb 75 7c 81 bc 49 e9 31 3b f8 64 03 3d
       -0.0025458722 -0.015806416 0.0027147105 0.032078713
000060 47 2d a7 bc c3 5e e4 ba ba 0c e6 3c e5 e9 ed 3c
       -0.020407332 -0.0017423261 0.02808224 0.029042194
000070 e4 85 34 bc 26 e2 1d bd a0 69 66 3c 66 2d 9d 3b
       -0.01101825 -0.03854575 0.014063269 0.0047966717
000080 b1 ca 2e 3d 9c 13 da 3a d0 5a b5 3c 3b 66 10 bd
       0.04267377 0.0016637924 0.02213803 -0.035253745
000090 95 d1 20 bd da 4c 60 bc be 84 56 3c d1 05 33 3c
       -0.039262373 -0.013690198 0.013093172 0.01092668
0000a0 08 74 2f 39 2a 1d 1d 3c a6 e8 54 3b 20 95 ec 3b
       0.00016732526 0.009589473 0.0032487302 0.0072199255
0000b0 f7 ee d0 3c ca 36 14 3d 3e 0d d6 bc cf f4 79 3c
       0.025504572 0.036185063 -0.026129361 0.015256121
0000c0 2e 1c 46 3b e4 1b 0d bd a6 b3 fe bc 78 8a 7c bc
       0.0030229199 -0.034450427 -0.031091522 -0.015413873
0000d0 35 d9 b9 3b b6 04 27 3d f5 33 c3 3c ca 81 d6 bb
       0.005671645 0.040775977 0.023828486 -0.006546234
0000e0 38 0b c4 3b 15 88 f8 bb a7 1d 6c bc 97 fb dd 3c
       0.0059827827 -0.0075845816 -0.014411367 0.027097506
0000f0 6e e9 0f bd 7b 7e 0c 3d 4c 4e 2c 3d b6 cc 2f bd
       -0.035134725 0.03430031 0.042066857 -0.042919837
000100 32 61 23 3c b5 61 f3 bc d1 aa ed 3c 50 52 9f bc
       0.009971904 -0.029709676 0.029012116 -0.01944843
000110 8e 35 6c bb f4 2f f5 bc b4 b5 32 3c 12 19 84 bc
       -0.0036042663 -0.029930092 0.010907579 -0.016125236
000120 f1 f6 33 3c 1b 3f 86 3b 32 40 88 bc 4d 72 d2 3c
       0.010984168 0.004096878 -0.016632173 0.025689268
000130 91 eb a4 3c a3 40 b9 3c ff 86 ff 3c 8a f4 ec 3c
       0.020131858 0.022613829 0.0311923 0.028925199
000140 97 94 3d 3c 77 89 bb bc d2 52 d7 3c fa bd 8d 3c
       0.011571071 -0.022892697 0.026284609 0.017302502
000150 1d e4 37 bb 07 9a 09 3d fb b4 2a 3d 57 f1 2e bd
       -0.002805955 0.033594158 0.041676503 -0.04271063
000160 c5 c0 e9 3b a0 51 bd 3c ee 57 c8 bc 94 c7 97 bc
       0.0071335756 0.02311021 -0.02445599 -0.018527783
000170 3b ed 1a 3d 78 d9 10 bb d8 83 ff 3c 17 73 84 bc
       0.037823897 -0.0022102278 0.031190798 -0.01616816
000180 8f 25 f6 3c ec 7a 13 3b 90 e6 f2 3c 18 24 4c 3c
       0.030047206 0.0022503687 0.029650956 0.012459777
000190 ef 7e 7f bc b5 cd 1b 3d 9c 48 95 bc 1c ab 16 3d
       -0.015594228 0.038037974 -0.0182231 0.036784276
0001a0 f6 24 64 ba fd 4c 11 bc bf f3 ef 3c 19 0d ad 3c
       -0.00087030174 -0.008868453 0.029291032 0.02112441
0001b0 c0 33 21 3d aa 89 ba 3b 46 3a 14 3d 00 b5 7a bc
       0.039355993 0.0056926804 0.036188386 -0.015301943
0001c0 91 69 18 3d 13 26 67 3c 49 f9 31 bd df 1f 80 bc
       0.03721005 0.014108199 -0.043450627 -0.015640197
0001d0 eb b7 a8 3c bb 87 29 bd cb 05 07 3d 27 9f 11 bc
       0.020595511 -0.04138921 0.03296451 -0.0088880425
0001e0 3d 34 2c 3d 66 88 bf 3b e0 41 c6 b7 ce fe 12 bd
       0.042042006 0.0058451174 -2.3634115e-05 -0.035887532
0001f0 fd 64 c2 ba 3e d1 92 bc 29 70 b3 3c fe 8d 03 3d
       -0.0014831122 -0.01792204 0.021904068 0.032117836
000200 2b 3a 2c 3d 01 1b 25 bc 4d aa 0d 3c 8c a5 4b 3c
       0.04204766 -0.010077239 0.00864656 0.012429606
000210 ca 62 21 3d b1 e9 2e 3d b2 e4 02 3c 25 fb 82 3c
       0.039400853 0.042703334 0.0079890955 0.015988896
000220 ba 54 78 bc cf da de bc 53 42 0a bb e2 b2 9b 3c
       -0.015156919 -0.027203945 -0.0021096661 0.019006196
000230 bb 6b f1 3c 2b 1f 1e bd db 92 32 3d 74 3a 02 3d
       0.029470315 -0.038603943 0.043597084 0.031794026
000240 e4 ba 58 bc 94 df a8 3c d3 32 32 bd ae 12 33 bd
       -0.013228152 0.020614423 -0.0435055 -0.043718986
000250 49 60 2b 3d d0 bf 77 3b 17 e6 00 bb 92 43 8e bc
       0.04183987 0.0037803538 -0.0019668394 -0.017366204
000260 3c 87 15 bd ac 2a 0d 3d e9 8a e9 3c df 1a 93 3b
       -0.036505923 0.034464523 0.02850862 0.0044892873
000270 1a 23 5f 39 c0 b4 a0 3a fe b1 1f 3c e2 cb 2e bd
       0.00021280014 0.0012260899 0.0097470265 -0.042674907
000280 f1 ef 5e 3c e3 26 29 bd db 2d 74 3c 3b a8 6f 3c
       0.013607011 -0.04129685 0.014903511 0.014627512
000290 e1 3b 26 bd af 45 91 3c da 22 3a bc ba 2f b5 bc
       -0.04058445 0.017733423 -0.011360848 -0.022117484
0002a0 72 f6 15 bc 26 5a 1b 3d c9 2a 0f 3d 41 ae ad 3c
       -0.009152995 0.03792777 0.034952912 0.021201255
0002b0 e6 bb 1c 3d 2e 06 0e 3d 7c 76 8f 3c cf 00 1b 3c
       0.03826513 0.034673862 0.017512552 0.009460642
0002c0 f4 60 2a bd 3c 01 e7 b9 06 e8 a0 bc dd f5 ea 3c
       -0.041596368 -0.00044060673 -0.019641887 0.02868169
0002d0 09 bb 0e bd 56 9d d9 bc d9 6e 88 bb 2e f6 e9 bc
       -0.03484634 -0.026564281 -0.0041636047 -0.02855977
0002e0 47 27 05 bd b3 ef 09 bd a3 df b7 bc b7 8b a8 bb
       -0.03250816 -0.03367586 -0.022445505 -0.0051436084
0002f0 f4 7f bf 3c ca 94 dc 3b 58 9f bd bc 14 86 fe 3c
       0.023376442 0.006731604 -0.02314727 0.031069793
000300 2f e7 c7 bc 8c 19 19 bd 8c 84 18 bc a9 ef d6 bc
       -0.02440223 -0.03737788 -0.009308945 -0.026237326
000310 01 1c 3e 3c 4f bb a1 bc 57 f9 91 3c e4 14 f7 bc
       0.011603356 -0.019742636 0.01781909 -0.030161329
000320 a2 3e a2 3c ae 7a 33 bd cc 51 5a 3c 0d 81 b2 bc
       0.019805256 -0.04381817 0.013325166 -0.021790052
000330 51 08 4b bb d5 73 ee 3b 0d d9 a5 3c ee dc 65 ba
       -0.0030980299 0.007276992 0.0202451 -0.0008768578
000340 25 f5 3b 3c 85 fa c5 3c 82 63 e8 3c 97 15 0a 3a
       0.011472021 0.024167309 0.028367762 0.00052674994
000350 66 89 e1 3c 84 3d d5 3c 40 5a 08 3c 68 80 f4 3c
       0.027531337 0.02603031 0.0083222985 0.029846385
000360 ad b0 2e 3d fd 5d c6 bc dd 85 89 3c ff 3c 0e bc
       0.04264896 -0.024214739 0.016787464 -0.008681535
000370 b1 42 2a bd 69 a1 04 ba 6c 48 2e bb 31 94 03 3d
       -0.041567508 -0.00050594524 -0.002659346 0.03212375
000380 4a 2c c7 39 40 38 4c 3b 1d a1 bb bb fb 76 ad 3c
       0.00037989236 0.0031161457 -0.0057259933 0.021174898
000390 5f 36 00 bc c0 e4 7d 3c 3f 81 09 3d e6 da 49 3c
       -0.007825463 0.015496433 0.033570524 0.012320256
0003a0 21 ee c9 3c 6c 7f 0a bc 22 14 b3 bc 01 aa 2a 3c
       0.024649682 -0.008453231 -0.021860186 0.010416509
0003b0 13 a7 03 3c 97 c9 2f bd cf b4 4b 3b bf dd bb 3c
       0.008035439 -0.04291686 0.0031083112 0.022932885
0003c0 dd e2 50 bc 98 39 11 3d 38 43 5c 3c 79 5d 78 bc
       -0.012749401 0.035455316 0.013443761 -0.015159004
0003d0 b2 67 42 3b 17 45 5f 3c a7 aa ab bb 1b c6 d1 bc
       0.0029663858 0.013627312 -0.005238849 -0.02560716
0003e0 5e ce e5 3c 1d f9 28 3d fe 5e 4c 3b 25 10 89 39
       0.028052505 0.041253198 0.003118455 0.00026142705
0003f0 3d a8 98 bc 71 5e 37 3c 83 6c 2f bd b6 51 bb bc
       -0.01863491 0.01119195 -0.042828094 -0.022866111

weight f4 [128, 256]
000000 6f 0e 63 3c d7 bc de bc 3a 16 6e 3b 2d 01 c7 3c
       0.013858422 -0.027189655 0.0036329166 0.024292553
000010 32 20 1d 3b c2 83 3b 3c 7b 2e 54 bd 22 04 42 bd
       0.0023975489 0.011444988 -0.05180214 -0.047367223
000020 79 ab 12 3d 3b 1f da bb 05 dc 3c 39 f7 da 00 bd
       0.03580806 -0.006656555 0.00018011041 -0.03145882
000030 dc 8a c5 3b 80 36 e3 bc 09 22 67 bd fe 46 6d bd
       0.006028516 -0.027735949 -0.056428943 -0.05792903
000040 9c 48 2a bd 2f 11 02 3c d1 bd 46 bd 1e 69 0b 3d
       -0.041573152 0.007938667 -0.048520867 0.034035794
000050 70 8a 46 bd fb 63 d4 3a 27 44 60 3b 31 85 32 3d
       -0.048471868 0.0016204113 0.003422031 0.043584052
000060 b1 2a 4c bd 2b 67 31 bd 29 fb d9 3c 75 6e ff bc
       -0.0498454 -0.04331128 0.02660902 -0.0311806
000070 8f d5 03 bd e2 77 8e 3b 78 d6 da bc e8 4a 84 3b
       -0.032186087 0.0043477872 -0.026713595 0.00403725
000080 89 c5 3d bd a1 08 97 bc 80 d4 1c 3c 48 65 38 bb
       -0.046330962 -0.018436732 0.009572148 -0.002813654
000090 fa 17 89 bc 14 28 5b bc 32 e9 33 bd dd 09 89 3c
       -0.016735066 -0.013376255 -0.043923564 0.016728336
0000a0 f0 a5 b4 bc 80 32 fb 3c a8 c6 42 bc d9 24 c3 3c
       -0.022051781 0.030663729 -0.011888184 0.023821281
0000b0 49 1a c6 bc 06 46 3f 3d e0 c0 8f 3d 20 2b 06 bd
       -0.024182456 0.04669764 0.0701921 -0.03275597
0000c0 38 33 2e 3d 19 76 af 3c f4 22 5e bc be b8 8a bc
       0.042529315 0.021418618 -0.013558138 -0.016933795
0000d0 cc 76 9c bc 2e e2 13 3d 3e 7e fd bb d1 90 5c 3c
       -0.019099616 0.036104374 -0.0077359965 0.013462261
0000e0 73 97 1e 3c 77 23 f4 3c eb 7f 49 bd 8a e2 ed bc
       0.009679663 0.029802067 -0.049194258 -0.029038686
0000f0 ae 6b 9d bc 72 66 df 3c de 8f 32 bc 69 89 48 3d
       -0.019216385 0.02727053 -0.010898558 0.04895917
000100 c8 09 8f bd c9 29 12 bc dd ec 3d 3d 54 bd 31 bd
       -0.069842875 -0.008921095 0.04636847 -0.043393448
000110 01 01 2d bc 1a 47 36 bd 2a 74 8f 3c 36 5e 1b bd
       -0.010559321 -0.0445014 0.017511446 -0.037931643
000120 f7 bd 54 bd 1b dd 1a 3d ca 9d 47 bc b1 0a d7 3b
       -0.051938977 0.03780852 -0.012183616 0.006562554
000130 12 49 d8 bc 4b 46 98 bc a2 b8 b5 3c ef fb 48 3d
       -0.02640203 -0.018588206 0.022182766 0.049068388
000140 50 23 f3 3c 14 0a e5 3c 87 b0 b7 bb f7 a7 00 3d
       0.029679924 0.027958907 -0.0056057605 0.031410184
000150 5d 4e 9c bc c9 fb eb 3b 5f 65 78 bc 15 c1 35 bc
       -0.019080335 0.007201646 -0.0151608875 -0.011093398
000160 56 f2 48 3d 71 c5 a5 bc 14 86 3a ba 64 89 4b 3d
       0.049059235 -0.020235749 -0.0007115316 0.049691573
000170 8b 7d 2d bd b9 d8 3b bd 55 19 cb bc 1c 71 66 3d
       -0.042356055 -0.04586098 -0.024792353 0.056260213
000180 25 a2 07 3d c1 7c 3a bc 6a 24 85 3d 4a 23 7d bd
       0.033113617 -0.011382283 0.06501086 -0.061801232
000190 94 60 65 bd 24 bb 82 3c dd 3e 40 bd 92 97 80 3d
       -0.056000307 0.015958376 -0.04693495 0.0627891
0001a0 2a 65 0c 3b fa 43 e6 bc 0b ba cf bc bd 6e de bc
       0.0021422603 -0.028108586 -0.025357267 -0.027152414
0001b0 e4 94 34 3d b1 13 7b 3d ef 46 d0 bc 1e 6f 33 bd
       0.044087306 0.061298076 -0.025424449 -0.04380714
0001c0 68 bd 60 bd fc 5b dd 3b 3d aa 52 bc 85 dc ac 3c
       -0.054868132 0.00675535 -0.012857971 0.021101246
0001d0 26 10 2f 3d 37 22 5e 3c 22 0b 18 bd cf 9f 2d bd
       0.04274001 0.013557962 -0.037119992 -0.042388733
0001e0 6c bf d4 b9 93 02 2d bb 72 13 2e bd aa a7 d2 3c
       -0.0004057841 -0.002639924 -0.042499013 0.025714714
0001f0 f6 f2 4a bd d5 1a c7 bb 85 a4 e5 bc 7c a0 97 bb
       -0.04954811 -0.0060761967 -0.02803255 -0.0046272855
000200 bd 84 1e bc 59 0d f4 3a 60 78 43 bd 7a 98 62 3b
       -0.009675202 0.00186197 -0.04772222 0.0034575746
000210 f0 e9 73 bd c4 3d 2f bd 1e 02 f7 bc 54 07 51 b9
       -0.059549272 -0.042783514 -0.030152377 -0.00019934523
000220 63 cb 5d 3d a2 e7 bc 3c 30 6c 01 3c 6d 05 55 bd
       0.054149043 0.02305967 0.007899329 -0.052007128
000230 2f 87 5c bd bc 14 b2 bc 20 e3 63 bd 85 48 15 3d
       -0.05383986 -0.021738403 -0.055636525 0.036446113
000240 0c f5 7c 3d 35 98 72 3d bb de 53 bd 4b a8 2b bd
       0.061757132 0.059227187 -0.051726084 -0.041908544
000250 25 56 d2 3c e6 7d 63 bd 28 0b 58 3d b6 c7 3f bc
       0.025675843 -0.055539988 0.052745014 -0.01170533
000260 f8 8a d1 3c 30 a6 41 bc cc a9 80 bd 39 e6 20 bd
       0.02557896 -0.011819407 -0.06282386 -0.039282057
000270 42 69 bf bb c9 4c cb bc e7 97 a2 3b e0 8b 46 bd
       -0.005841405 -0.024816887 0.004961956 -0.04847324
000280 74 58 d0 bb 02 ac 0e 3d 6a d9 a7 3c 88 18 4b 3d
       -0.0063582007 0.03483201 0.020489413 0.04958394
000290 65 50 c4 3c 4b 7d 4c bc d2 0f 69 3d 6d 09 67 3d
       0.023964116 -0.012481044 0.056899853 0.056405474
0002a0 59 dd 1d 3c 61 a6 7c bd 5c 4a ec 3b b6 32 63 bc
       0.009635293 -0.06168211 0.0072110128 -0.013867071
0002b0 c7 e0 66 3d a6 ce 63 bd 6b 70 54 3d a8 d7 23 3c
       0.056366708 -0.055616997 0.051865023 0.010000147
0002c0 5b bf c9 bc fc dc 81 bb de c8 8f 3d 02 65 ed bc
       -0.024627378 -0.003963111 0.07020734 -0.028978828
0002d0 79 96 de 3c 89 ad 8c bd ac 57 91 bc f8 fd 2e bb
       0.02717136 -0.06869037 -0.017742 -0.002670167
0002e0 be 69 01 bc 5a 6c f6 bc 92 7e 18 bd e8 0c cb 3a
       -0.007898746 -0.030080963 -0.03723008 0.0015491517
0002f0 c1 9e 57 bd 34 87 26 3d e7 6d 0d 3d 91 e5 64 ba
       -0.052641634 0.040656283 0.03452864 -0.0008731718
000300 a0 d6 07 3d 95 57 55 bd 38 66 02 bd 98 1a 31 3d
       0.033163667 -0.052085478 -0.031835765 0.043238252
000310 cc 29 1c 3d f5 96 4e bd 71 d6 3d 3c 81 1f dc bc
       0.038125798 -0.050436933 0.011586771 -0.026870491
000320 5c 56 71 3c f9 70 dc bc 5b 34 25 bd 60 85 43 bd
       0.014730062 -0.026909338 -0.040333133 -0.04773462
000330 87 ac 1c bd 8b 5a d8 bc 01 5f c5 3c 64 40 70 bd
       -0.038250472 -0.026410362 0.024093153 -0.058655158
000340 30 3b 03 3c 39 7c 8f 3d 48 f9 bb 3c cd 86 b5 3c
       0.008009717 0.070061155 0.022946015 0.022159005
000350 93 fa 7c bd 77 bf ce 3c c2 8c 62 bc e8 14 d9 bb
       -0.061762404 0.025237782 -0.013827505 -0.0066248067
000360 3e e7 6f 3c e8 31 80 3d 23 77 81 bc a6 37 e0 3c
       0.014642535 0.06259519 -0.01580388 0.027370285
000370 61 ec 82 3d e0 88 0b 3d 21 bb b0 3c 59 83 9c bc
       0.06392742 0.03406608 0.021573605 -0.0191056
000380 bc 02 52 bc 5f ca a2 3c 54 93 c7 3c 41 79 df 3c
       -0.012818035 0.019871889 0.024362244 0.027279498
000390 3b 53 1a 3a dd 2b 80 bd 9d ee 07 bb 1b 8c 38 3d
       0.0005887036 -0.06258366 -0.002074159 0.04505549
0003a0 01 0f 48 3d 16 05 07 3d 83 53 5a bd 27 b9 1f bd
       0.048842434 0.032963835 -0.0533023 -0.038994934
0003b0 25 2d 2f bd 68 07 cb 3c 99 02 94 3d 2e 95 12 bd
       -0.042767663 0.024783805 0.07227058 -0.0357868
0003c0 d8 78 47 3c 18 78 4a bc 22 1f c4 bb 06 59 1c bd
       0.0121748075 -0.012357734 -0.0059851566 -0.038170837
0003d0 ae 22 6d 3d 30 15 00 3c dd 93 64 bd 14 25 66 3c
       0.0578944 0.0078175515 -0.055805076 0.014046926
0003e0 68 0f 16 3d 03 f0 db bc 5e a0 2f bd 4b 92 f1 bc
       0.036635786 -0.026847845 -0.042877547 -0.029488703
0003f0 75 9d 77 bd 7f d1 8f 3b 63 13 27 3d d8 26 65 3d
       -0.060452897 0.0043889876 0.040789973 0.055945247

bias f4 [128]
000000 35 60 29 bb 77 31 11 bd 3e 59 a3 3c 6e ff 22 bd
       -0.0025844697 -0.035447564 0.019940015 -0.039794378
000010 d5 0b 1b 3d af 31 ac 3c e9 a5 46 bd 12 44 5d bd
       0.03785308 0.021019785 -0.048498068 -0.054019995
000020 16 26 00 bb a8 d6 ae bc 4d 70 87 bc ad 61 5c bc
       -0.001955395 -0.02134259 -0.016533041 -0.013451022
000030 7e 59 1f bc a8 96 c3 3b e7 9c c9 bb 83 49 2e 3d
       -0.009725926 0.0059688874 -0.0061527374 0.042550575
000040 66 9e 77 bb 12 8f bb 3c c4 a2 7f bd c4 42 67 3d
       -0.0037783622 0.02289537 -0.062411085 0.056460157
000050 55 ad 40 3c 25 eb 60 bd f2 ca 40 bd 8a 17 a6 bc
       0.011760076 -0.05491175 -0.047068544 -0.020274896
000060 3f f1 59 3d 15 bf 4f 3d 96 43 69 3d 49 2b fc 3b
       0.053208586 0.05071934 0.05694922 0.0076955897
000070 e6 5f 7b 3d 79 e7 f0 3c 7b c0 ff 3c 15 b7 d8 bc
       0.061370753 0.02940725 0.031219712 -0.026454488
000080 21 1a 53 3d 8f 52 f7 3c c2 8b ce 3c 7e d9 4e bd
       0.05153859 0.030190734 0.025213126 -0.050500385
000090 6b 5a 19 3d 3f 4f 03 bd be a2 0f 3d 57 88 6a 3c
       0.037439745 -0.032057997 0.035067312 0.0143147325
0000a0 73 89 4f 3d 5c 45 6f bd 72 04 36 bd 87 1f 80 3d
       0.05066819 -0.058415756 -0.044437833 0.06256013
0000b0 37 8a 7d bd 6c d8 f3 bc 27 55 62 3d 48 ec 27 3d
       -0.06189939 -0.029766284 0.05525699 0.04099682
0000c0 26 d3 f0 3c e1 ab 8a b9 99 fe 25 bd 9c 14 40 bd
       0.029397558 -0.0002644947 -0.040526006 -0.046894655
0000d0 9f 39 59 bd f7 93 37 3d fa 02 d5 bc df 38 5f bd
       -0.053033467 0.044818845 -0.026002396 -0.054497596
0000e0 2a 56 31 bd 1d ad 02 bc a6 e1 ee bc 81 58 a7 3c
       -0.043295063 -0.007975844 -0.029160332 0.020427944
0000f0 b3 9c 3f bd 46 a4 fa bb 23 3c cf bb 93 37 34 3d
       -0.0467803 -0.0076489775 -0.0063243075 0.043998312
000100 1a 24 17 3c ea 79 75 bd b0 97 bc 3c 3b 70 8c 3c
       0.009224916 -0.05993072 0.023021549 0.01714336
000110 c0 6c 4c bc 72 18 48 3b e4 41 12 bd cf 96 56 3d
       -0.0124771 0.0030532149 -0.03570737 0.052389916
000120 c8 b6 29 bd 4f 78 7e 3d 5e e5 2b 3b 12 91 2f 3d
       -0.04143408 0.062126454 0.0026229243 0.04286296
000130 16 b4 fd 3c d5 56 53 3c d3 fe 20 3d 76 6e e3 3c
       0.03096966 0.01289912 0.03930552 0.027762633
000140 08 83 b9 bc f6 26 34 bd 8e f0 a6 3b 20 f7 26 3d
       -0.022645488 -0.04398247 0.0050945943 0.04076302
000150 41 74 98 3c 05 b6 44 bd 45 e5 a8 3c ec af 12 3d
       0.018610122 -0.04802515 0.020617137 0.035812303
000160 7c 3d a8 3b 8d f3 40 bc 47 fd 78 3c fa 9f 2d bc
       0.0051342826 -0.011776817 0.015197105 -0.010597223
000170 83 d9 42 bd a8 9d 65 3b 5e b6 07 bd 46 8a 48 bd
       -0.047570717 0.0035036597 -0.033132903 -0.048959993
000180 9c 02 04 3d ed 46 4f bc a0 5c 8e 3b cd 19 ec bc
       0.03222905 -0.012651187 0.004344538 -0.028820897
000190 73 2a 31 bc c3 53 62 bc 1f 07 7c bd cc 4b 6a 3d
       -0.010813343 -0.013813916 -0.06153023 0.05720119
0001a0 0a 1b 52 3c b4 ff 60 3c 5c db 94 3c ab 51 1f 3d
       0.012823829 0.013732839 0.018171005 0.038896244
0001b0 5c e7 40 3d 60 9d 5e 3d 12 b9 17 bd f7 74 26 3d
       0.04709564 0.054349303 -0.03704173 0.04063889
0001c0 10 7b e5 ba ad 5d 7a 3d 9b de 04 3d d6 48 1c 3d
       -0.0017507989 0.061124492 0.032438856 0.0381554
0001d0 46 4f bb bb e3 05 2a 3d c8 9c 81 3a f1 2d 66 3d
       -0.0057162372 0.04150952 0.0009888643 0.056196157
0001e0 43 71 41 bd cf 02 49 3d 8b fa a5 3b 78 c6 11 bd
       -0.047227155 0.049074944 0.0050652674 -0.035589665
0001f0 f1 0e a7 3b 65 2a 36 3d c8 05 57 bd 11 d6 0c 3c
       0.0050982167 0.044474024 -0.052495748 0.008595959

weight f4 [2, 128]
000000 14 e7 9b 3d 8f c0 3e 3d fc 8d 05 3d 23 6a 8a bd
       0.07612434 0.046570357 0.03260611 -0.06758525
000010 a4 9c ac bd ea 16 33 bd b0 93 8e bd d5 b8 01 bd
       -0.08428314 -0.043723024 -0.06961763 -0.03167041
000020 9b 6b 9f 3c 11 95 a3 3c d6 dc da 3c 3e a3 8b 3d
       0.01946049 0.019968541 0.02671663 0.06818245
000030 03 15 04 3c f6 8e 2a 3d f2 a9 92 bd c7 34 aa bd
       0.00806165 0.041640244 -0.07161321 -0.08310848
000040 e5 7e 3d 3d d0 b3 80 3b 30 35 ca 3d 82 e2 c4 3d
       0.046263594 0.0039276853 0.09873426 0.096135154
000050 fb b6 b4 3d ad 0a 99 3d 73 9a 91 bc 64 87 38 bc
       0.08823963 0.07472739 -0.017773842 -0.011262748
000060 f0 95 55 bd 29 44 50 bd 65 81 b8 3d 4e 21 b6 3d
       -0.052144945 -0.050846253 0.09009055 0.08893071
000070 c6 bf 20 3c a3 09 26 3d 36 eb 35 bd 33 07 07 bd
       0.009811347 0.040536534 -0.044413768 -0.03296585
000080 ec 3e 8a bd ff cd 24 3d 5f 20 cf 3c f9 34 e7 bc
       -0.06750283 0.040235516 0.02528399 -0.028223502
000090 59 db b6 bc 27 57 d6 3c 73 8c 28 bd a8 9e f5 3b
       -0.02232139 0.026164604 -0.041149568 0.00749572
0000a0 bb 83 f8 bc cc d7 96 bd 86 69 c6 bd f0 e9 cb bd
       -0.030336251 -0.07365379 -0.09688096 -0.099567294
0000b0 9c 8b 6a bd 49 d7 42 3d cc 53 65 bc de 51 3c 3d
       -0.057262048 0.047568593 -0.0139970295 0.045976512
0000c0 8f f9 ad 3c 08 56 f8 39 fe fe 1e bd df df 83 3c
       0.021237163 0.00047366344 -0.0388174 0.016097961
0000d0 36 a6 4a bd c2 1c 6b 3c bc b5 1a 3d 3c ab 97 3d
       -0.049474917 0.014350118 0.03777097 0.07405707
0000e0 f8 73 ce bd 39 0a 9f bd 5b ae a4 3d 89 e4 b8 3d
       -0.10080713 -0.07765622 0.08041068 0.090279646
0000f0 4e 59 11 3d b4 fa 68 bc 48 f7 3d 3c 55 fe ff b9
       0.03548556 -0.0142199285 0.011594601 -0.00048826882
000100 1a 7d dc 3d 3c 62 4a 3d c6 33 01 bc 2e 29 bd bd
       0.10766049 0.04941009 -0.007885879 -0.0923637
000110 d7 57 b3 bd 43 fa 80 bd 2e b3 b9 3d a1 1a 70 bd
       -0.087569885 -0.06297734 0.09067379 -0.058619145
000120 b2 33 76 3d 2a 24 b4 bd 26 76 af 3d c3 06 c0 3d
       0.060107894 -0.0879596 0.08567457 0.0937629
000130 98 d7 5c bd 8e 1e 65 bd f5 24 82 bd cb 28 bd 3d
       -0.053916544 -0.055937342 -0.06354705 0.09236296
000140 2a d5 8b 3d 2d 18 80 3d 5f 55 b4 3d b5 d0 6d bd
       0.06827767 0.06254611 0.08805346 -0.058060367
000150 c4 5e 91 3d 65 25 97 bd 54 55 dd bb 64 a5 bd bd
       0.07098153 -0.07380179 -0.0067545567 -0.092600614
000160 e6 08 76 bd c3 80 7a 3d 70 4a a2 bd ec 23 2f 3c
       -0.06006708 0.061157953 -0.07924354 0.010689717
000170 19 df 81 3c 16 f8 4d 3d ff 29 1d 3d fc 16 93 3d
       0.015853452 0.05028542 0.03837013 0.07182118
000180 d0 63 44 3c 18 fd 59 3c 2c 8f f4 3c bd 91 11 3c
       0.011986688 0.013304971 0.029853426 0.008884844
000190 23 f0 b9 bc 59 91 d4 3c ef 14 32 bc 2e dd 90 bd
       -0.022697514 0.025948213 -0.010869249 -0.07073437
0001a0 23 68 5b 3d 6d 64 7c bb a6 d5 d8 3d c0 25 55 bc
       0.05356611 -0.0038512007 0.10587625 -0.013009489
0001b0 66 70 99 3d f9 22 b1 bd 62 31 24 3b 5b a2 a4 3d
       0.074921414 -0.08649249 0.0025053849 0.08038779
0001c0 2b ab 9d 3d 64 89 bb bd 39 d6 6c bd 56 21 b8 bd
       0.07698663 -0.091570646 -0.057821486 -0.08990733
0001d0 0a f6 15 3d 77 47 e0 bb e5 37 59 bd 60 3e b5 bd
       0.036611594 -0.006844457 -0.05303182 -0.08849788
0001e0 19 d9 b4 bd be e3 ab 3d 74 c9 7c 3d af 51 8e bd
       -0.088304706 0.08393048 0.06171556 -0.06949174
0001f0 ae aa 40 bd f5 6c 40 bd 31 5d b8 bd 86 f7 7a 3d
       -0.047037773 -0.04697891 -0.0900215 0.061271213
000200 d5 73 e7 bc 41 9b e3 bc bd fd ca bd 28 67 bc bc
       -0.028253475 -0.027783992 -0.09911678 -0.022998407
000210 d0 68 43 3d 0b bc 8d bd 07 86 3c 3c 8c 37 55 3d
       0.04770738 -0.06920632 0.011506564 0.052054927
000220 24 10 11 bb 86 77 b4 bd 8e fa 64 bd fe 45 d4 3d
       -0.0022134865 -0.0881186 -0.05590301 0.103649125
000230 9c 1b 1a 3d 21 e3 90 bd 2c 7d db 3b dc 3a 43 bd
       0.037623987 -0.070745714 0.0066982713 -0.047663555
000240 08 0f c6 bc 15 c4 b5 3d df 41 73 bd 14 24 16 3b
       -0.02417709 0.0887529 -0.05938899 0.0022909688
000250 a4 f4 15 3d c3 f8 9d bd 05 18 5d 3c 3d 35 59 bd
       0.03661026 -0.07713463 0.013494496 -0.053029288
000260 76 55 a9 bd 83 94 82 3c 9d 79 5a 3d 50 82 78 39
       -0.082682535 0.015939957 0.053338636 0.00023699668
000270 35 97 b0 3d bc 96 9f bc dc 0f 29 3d 15 e3 18 3d
       0.086225905 -0.019481055 0.04127489 0.037325937
000280 88 3b 2e bd 89 c6 4c bd b2 9b b9 bd b4 b8 35 ba
       -0.042537242 -0.049994025 -0.090629 -0.0006932125
000290 19 16 42 bd 1c 19 bd bd 96 10 78 3d 7d 54 a3 bd
       -0.047384355 -0.09233305 0.060562693 -0.07975099
0002a0 2d 3d 34 3d a9 ea 57 3d 6e c1 a6 3d 70 19 27 3d
       0.044003654 0.052714024 0.081423625 0.040795743
0002b0 16 f1 44 3c a7 48 a6 3d 3e 13 99 3c 21 60 5a bd
       0.01202037 0.08119326 0.018685933 -0.053314332
0002c0 a4 ed 78 bd ce 72 d3 3d 3d 07 c2 39 14 35 24 bd
       -0.060773507 0.10324632 0.00037007956 -0.04008968
0002d0 66 dc bc 3d 85 48 c9 bd 9f 16 e1 3b 1e c4 57 3c
       0.09221725 -0.09828285 0.0068691517 0.013169317
0002e0 23 ec 98 3d 0f 92 0b 3d a2 2d ac bd b6 16 e7 3c
       0.074669145 0.03407484 -0.08407141 0.028209072
0002f0 50 8e 3f bd fb d2 24 bc 5c 0c d1 3c 50 a6 a4 3d
       -0.04676658 -0.010060067 0.025518589 0.08039534
000300 be e2 af bc d4 b2 b9 3d 80 07 15 3d 0e 34 17 3d
       -0.021470424 0.09067312 0.036384106 0.036914878
000310 15 9f 4f 3d d9 3b d3 3d 98 48 55 3d 89 e1 0b 3c
       0.05068882 0.103141494 0.052071184 0.0085376585
000320 9c cc 93 bd 1e ac eb 3c f9 48 b4 3c 1d 79 20 3c
       -0.072167605 0.028768595 0.022007452 0.009794501
000330 a7 e6 63 bd b0 09 a4 3d e0 cb ad bd bd d8 af bd
       -0.05563989 0.0800966 -0.08486152 -0.085862614
000340 91 77 1b bc 70 24 04 3d b1 05 82 bd e5 4e 29 3d
       -0.009488956 0.032261312 -0.06348742 0.041335005
000350 70 2e 35 bc 93 9e 8c 3d 27 42 99 bd c3 c7 12 3d
       -0.011058435 0.06866183 -0.07483321 0.03583504
000360 89 fe a4 bd c5 4b 60 3d 92 aa 0d 3d e0 65 84 3d
       -0.08056361 0.05475976 0.034586497 0.064647436
000370 21 5e 5c 3d a3 e0 9d 3d 80 79 91 bc b6 89 77 bc
       0.053800706 0.07708862 -0.017758131 -0.015108516
000380 1d 0d 75 bd 27 a0 a3 bd 20 59 a1 3c e1 1b c3 bd
       -0.05982696 -0.07989531 0.019695818 -0.09526802
000390 57 3e b0 3d 0e 90 87 3d 5a b5 a7 bd 54 23 19 3d
       0.086056404 0.06619273 -0.08188887 0.037387207
0003a0 6c 2b c7 bd 4a 79 1a 3d 43 cd 81 bd ab f7 83 3c
       -0.09725079 0.037713327 -0.06337979 0.016109308
0003b0 c7 99 8f bc 07 41 88 bd 4a d9 02 3d 0a d3 9d bd
       -0.017529381 -0.06653028 0.031945504 -0.07706268
0003c0 28 8c 3d bc f2 1b 68 3d 41 01 aa 3d f3 72 38 3d
       -0.01156906 0.056667276 0.083010204 0.0450315
0003d0 51 97 ab bd bd e2 c7 bd bf 74 bd 3d 10 26 79 bd
       -0.08378471 -0.09760044 0.09250783 -0.060827315
0003e0 68 26 c9 3d 79 82 29 3d da 49 b0 3c 0a 3c be 3c
       0.098217785 0.041384194 0.02151959 0.023221988
0003f0 0d 1b 94 ba ab 07 b7 3d b3 4c 3e bd 20 6a 09 bd
       -0.0011299566 0.089370094 -0.046459865 -0.033548474

bias f4 [2]
000000 2e e9 79 bd 36 46 17 3b
       -0.061013393 0.002308262
